model.pt (torch, 4755 bytes, 4 tensors)

0.weight f4 [64, 10]
0	0x3da74ee4	0.08169344
1	0x3e1eefbe	0.15521142
2	0xbb285000	-0.002568245
3	0xbe2585d4	-0.16164333
4	0x3e4f5c16	0.20249972
5	0x3cfcc300	0.030854702
6	0xbe564708	-0.20925534
7	0x3dbb72ac	0.09152731
8	0x3e3ed81a	0.18637124
9	0x3e00adbc	0.12566274
10	0xbd098c20	-0.0335809
11	0xbd86d093	-0.06582751
12	0xbd3017c8	-0.04299143
13	0xbd797b60	-0.060908675
14	0xbdb5d2d3	-0.08878102
15	0x3e12106d	0.14264078
16	0xbd3544a8	-0.04425493
17	0xbe96dfc4	-0.29467595
18	0xbe32dff7	-0.17468248
19	0x3dfe7de7	0.12426358
20	0x3e547e78	0.20751369
21	0xbea17339	-0.3153322
22	0x3dba4b3c	0.09096381
23	0x3df65bf8	0.120292604
24	0xbe45cdbb	-0.19316761
25	0xbe142f00	-0.14471054
26	0x3e1731d2	0.14765099
27	0x3e2361a4	0.15955216
28	0xbe969aab	-0.29414877
29	0xbd561330	-0.052264392
30	0x3d076b50	0.033061326
31	0xbc994da0	-0.018713772
32	0x3d1ba7b5	0.038001735
33	0xbe8907f9	-0.26763895
34	0xbd6d28c8	-0.05790022
35	0x3da8635f	0.082220785
36	0x3e581031	0.21099927
37	0xbe9ccfda	-0.30627328
38	0xbe84e65e	-0.25957006
39	0xbd93c7de	-0.07215856
40	0x3d0175b9	0.03160641
41	0xbd93dabc	-0.07219455
42	0x3e20eae1	0.15714599
43	0x3d801591	0.062541135
44	0xbea0b4c6	-0.3138792
45	0xbe12f5f1	-0.14351632
46	0xbe7b044c	-0.24513358
47	0xbe9da75c	-0.30791748
48	0x3d8f79c8	0.0700565
49	0xbdc2dd80	-0.09514904
50	0x3bb8ec90	0.005643435
51	0xbe99f4c5	-0.30069557
52	0xbe72c140	-0.23706532
53	0xbdde19cb	-0.10844763
54	0xbd8c5b98	-0.068534076
55	0xbd87b9b9	-0.06627221
56	0xbe71e19f	-0.23621224
57	0xbe77aa32	-0.24186018
58	0xbe3b414b	-0.18286626
59	0xbe99dd3b	-0.30051598
60	0xbe3a2b3b	-0.18180554
61	0xbddbb673	-0.10728159
62	0xbe4964f0	-0.19667411
63	0xbdeea799	-0.116530605
64	0xbe3a3905	-0.18185814
65	0xbea03e15	-0.31297365
66	0xbe110ccb	-0.14165036
67	0xbe80eacb	-0.25179133
68	0x3db5c1aa	0.08874829
69	0xbdb87d8c	-0.09008321
70	0xbe4ccd58	-0.20000207
71	0xbbd18628	-0.0063941665
72	0xbe81afb9	-0.25329378
73	0xbe97ff6a	-0.29687053
74	0xbe695a3e	-0.22788331
75	0xbb4c3b74	-0.0031163367
76	0xbe4d7ab1	-0.20066334
77	0xbea7cc66	-0.3277313
78	0xbe44eaa0	-0.19230127
79	0x3e0c2482	0.13685802
80	0xbde9de32	-0.114193335
81	0x3d1ab408	0.037769347
82	0x3dbb711d	0.09152434
83	0x3d0c1147	0.034196164
84	0x3dc9064f	0.098156564
85	0x3e8046fa	0.2505415
86	0x3e03dfcc	0.1287834
87	0xbd0635c0	-0.032766104
88	0x3e10afb9	0.14129533
89	0xbd145e7a	-0.036222912
90	0xbe731ada	-0.23740712
91	0xbda68cc0	-0.08132315
92	0x3da28894	0.079362065
93	0xbd046758	-0.03232512
94	0x3da01b44	0.078177005
95	0x3e22ebdf	0.1591029
96	0x3d97ae65	0.0740631
97	0x3e2f617e	0.17127034
98	0xbcc72040	-0.02430737
99	0xbc98b5fd	-0.018641466
100	0x3e0f36aa	0.13985696
101	0xbe735430	-0.23762584
102	0x3e6aa39f	0.22913979
103	0xbd867b6c	-0.065665096
104	0xbe22e52a	-0.15907732
105	0xbdd01a8a	-0.10161312
106	0x3e6b07bd	0.2295217
107	0xba8e2900	-0.0010845959
108	0x3e2b872c	0.16750783
109	0x3e1f83f7	0.15577684
110	0xbd128170	-0.035767972
111	0x3d6ea593	0.058263373
112	0xbe9d3b05	-0.3070909
113	0x3cbf9b51	0.02338949
114	0xbe890347	-0.26760313
115	0xbcce191c	-0.025158457
116	0xbca5b41f	-0.02022749
117	0xbb57e5ca	-0.0032943361
118	0x3e23d34c	0.15998572
119	0xbcb48e20	-0.022040427
120	0xbd34b11b	-0.044114213
121	0xbe2a9d6d	-0.16661616
122	0xbda5265c	-0.08063957
123	0xbd808e2f	-0.06277119
124	0xbe2c4ff0	-0.16827369
125	0xbe9b555a	-0.30338556
126	0xbe2f52f2	-0.17121485
127	0xbe8c73f7	-0.27432224
128	0xbe702195	-0.2345031
129	0x3e2dc18c	0.16968364
130	0x3dc9d7b5	0.09855596
131	0x3dac4a12	0.08412565
132	0x3c7aba44	0.015303198
133	0xbe0fb22a	-0.14032808
134	0xbe04c9f5	-0.12967665
135	0xbe185788	-0.1487714
136	0xbe60e327	-0.21961652
137	0xbe6edf58	-0.23327386
138	0x3d9b422c	0.07580981
139	0xbe33df89	-0.1756574
140	0xbe4924c0	-0.19642925
141	0xbe7e3b8e	-0.24827406
142	0xbe02500d	-0.1272585
143	0xbd96651f	-0.07343506
144	0xbdbbc065	-0.09167556
145	0xbe5716c4	-0.21004778
146	0xbd383248	-0.044969827
147	0xbe531544	-0.20613581
148	0xbdac38d2	-0.08409275
149	0xbd8cb1a7	-0.06869822
150	0x3dd1f53b	0.10251852
151	0x3e0ef726	0.13961467
152	0x3dc75854	0.09733644
153	0xbe84c45e	-0.25931066
154	0x3e0318b2	0.1280239
155	0x3a023200	0.0004966557
156	0xbe67d71a	-0.22640648
157	0xbdc83220	-0.097751856
158	0xbe1accd8	-0.15117204
159	0x3d663b68	0.056208998
160	0x3d79a16a	0.060944952
161	0xbd077917	-0.033074465
162	0x3d1e707e	0.0386815
163	0x3d074841	0.03302789
164	0xbe1bfe0d	-0.15233631
165	0xbe5606f4	-0.2090109
166	0x3d1ebd48	0.03875473
167	0xbe7ad4c9	-0.24495234
168	0xbdf568b6	-0.11982863
169	0x3be84f1d	0.007089509
170	0xbe5d8ea1	-0.2163644
171	0xbdcc6c30	-0.09981573
172	0x3e16f97f	0.14743613
173	0x3d86e6c2	0.06586982
174	0xbd6f948b	-0.05849127
175	0x3dd31a56	0.103077576
176	0x3da28496	0.07935445
177	0x3dfff18c	0.12497243
178	0xbd61abf5	-0.05509563
179	0x3c84be6f	0.016204087
180	0x3e3389f8	0.175331
181	0xbcf92cc0	-0.030416846
182	0x3e26c735	0.16286929
183	0xbe2a5a06	-0.16635904
184	0xbd8b5b22	-0.068044916
185	0xbdad7d10	-0.084711194
186	0x3e15c787	0.14626895
187	0xbd05eb48	-0.032695085
188	0x3e5007a2	0.20315412
189	0x3ddb4398	0.10706252
190	0xbe42d689	-0.19027151
191	0xbd367830	-0.044548213
192	0xbca78600	-0.020449638
193	0x3e9e77f5	0.30950895
194	0xbda0ebaa	-0.07857449
195	0x3e849f2a	0.25902683
196	0xbe0266f3	-0.12734585
197	0xbd8c3ad4	-0.06847158
198	0xbe90f8ef	-0.2831492
199	0xbe56d86e	-0.20980999
200	0xbe88620e	-0.2663731
201	0xbda3596e	-0.07976042
202	0xbd9435ff	-0.072368614
203	0xbd7d1be8	-0.06179419
204	0xbcfc2050	-0.030777127
205	0x3db667ae	0.08906494
206	0xbdd45e18	-0.103695095
207	0x3d4255e8	0.047445208
208	0xbdf87d96	-0.121333286
209	0x3e105eac	0.14098614
210	0x3e839723	0.25701246
211	0xbe534495	-0.2063163
212	0x3d9c4ea8	0.0763219
213	0x3e319918	0.17343557
214	0x3cc8a100	0.024490833
215	0xbe1a23dc	-0.15052742
216	0xbe720ff9	-0.23638906
217	0x3c3ae8e0	0.011408061
218	0xbe880a1b	-0.2657021
219	0x3e2e80da	0.1704134
220	0xbc6ced50	-0.014460877
221	0x3db0294e	0.08601628
222	0x3dd23dab	0.102656685
223	0xbd4e1728	-0.050315052
224	0x3d9f92e6	0.077916905
225	0x3d8978c2	0.06712486
226	0xbdaed51e	-0.08536743
227	0x3e1d25d6	0.15346465
228	0x3c03dfa5	0.0080489265
229	0xbe7ae71e	-0.24502227
230	0x3deed30c	0.11661348
231	0x3d176208	0.036958724
232	0x3e951001	0.29113773
233	0xbbe0c900	-0.0068598986
234	0x3e32aa0a	0.17447677
235	0x3d774428	0.060367733
236	0xbd594cb8	-0.05305168
237	0xbda58468	-0.08081895
238	0x3e9b62cb	0.3034881
239	0xbde4a4bc	-0.11164233
240	0xbe15eb77	-0.14640604
241	0x3cc4cbd0	0.024022967
242	0xbe28d548	-0.1648761
243	0xbd6f6ba8	-0.05845228
244	0x3e44d60a	0.19222274
245	0xbd9c2c2a	-0.07625611
246	0x3e39d156	0.18146262
247	0xbe921a83	-0.28535852
248	0xbc4037c0	-0.011732042
249	0xbd751778	-0.059836835
250	0xbd9d77e3	-0.07688882
251	0xbe3a2c92	-0.18181065
252	0xbe90cbfb	-0.28280625
253	0xbde1bca8	-0.110223114
254	0x3e2d714f	0.16937755
255	0xbaa452be	-0.0012536866

0.bias f4 [64]
0	0xbe6efcc1	-0.23338605
1	0xbe9c6cd4	-0.3055178
2	0xbe84170d	-0.25798836
3	0xbe6b0f1c	-0.22954983
4	0xbe85ade1	-0.26109222
5	0xbe29869b	-0.16555254
6	0xbdbac042	-0.091187015
7	0xbe50dfcf	-0.20397876
8	0xbe840679	-0.25786188
9	0xbeba1b7a	-0.36349088
10	0xbe6c91d8	-0.2310251
11	0xbe466d90	-0.19377732
12	0xbe95c482	-0.29251486
13	0xbea2f605	-0.31828323
14	0xbcac9f12	-0.021071944
15	0xbe20399e	-0.15646979
16	0xbe8e643d	-0.2781085
17	0xbe50bb12	-0.20383862
18	0xbe80f2b9	-0.25185183
19	0xbeb56af5	-0.35433164
20	0xbea69ce2	-0.32541567
21	0xbe947ecd	-0.2900299
22	0xbe222851	-0.15835692
23	0xbe9baee9	-0.30406883
24	0xbe9c56b8	-0.3053491
25	0xbe4c27ca	-0.19937053
26	0xbdbb62ca	-0.09149702
27	0xbe400e88	-0.18755543
28	0xbe6d5626	-0.23177394
29	0xbeb949e3	-0.36189184
30	0xbe343101	-0.17596819
31	0xbe787b0f	-0.24265693
32	0xbe679eea	-0.22619215
33	0xbdf77e24	-0.12084606
34	0xbe120767	-0.14260636
35	0xbe892ca0	-0.2679186
36	0xbe6bfec9	-0.23046412
37	0xbea6c927	-0.32575342
38	0xbe35396f	-0.1769769
39	0x3bbd5ce9	0.005778898
40	0xbe7f649b	-0.24940722
41	0xbe4d4aaf	-0.20048021
42	0xbe2cbc3e	-0.16868684
43	0xbeaceb34	-0.33773196
44	0xbe0e1dfc	-0.13878626
45	0xbe49cc1c	-0.19706768
46	0x3e571f20	0.21007967
47	0xbeaee3af	-0.34158084
48	0xbe405484	-0.1878224
49	0xbe90a923	-0.2825404
50	0xbe72046d	-0.23634501
51	0xbe5428ef	-0.2071874
52	0xbe51adf4	-0.20476514
53	0xbe754b45	-0.23954494
54	0xbeb0d608	-0.34538293
55	0xbe958498	-0.29202724
56	0xbe24b7d4	-0.1608575
57	0xbe6136f5	-0.2199362
58	0xbe68343f	-0.2267618
59	0xbe394c63	-0.18095545
60	0xbe9095e7	-0.28239366
61	0xbeaef2d4	-0.34169638
62	0xbe9b52bc	-0.3033656
63	0xbe62ff75	-0.22167762

2.weight f4 [2, 64]
0	0xbda1e60e	-0.079052076
1	0x3bfd016e	0.0077211177
2	0x3c8774f0	0.016535252
3	0xbd431eb0	-0.047636688
4	0xbc09213a	-0.008369738
5	0xbdba7b46	-0.09105544
6	0xbd2df309	-0.042468105
7	0xbd441036	-0.047867022
8	0xbcdec68a	-0.02719428
9	0x3e11e0c7	0.14245902
10	0xbc3a0613	-0.011353987
11	0xbd94c804	-0.072647125
12	0xbb0e2dbc	-0.002169474
13	0xbd8e11fe	-0.069370255
14	0xbacfc239	-0.001585073
15	0x3c3abd33	0.011397648
16	0x3d47b4de	0.048756473
17	0xbd392650	-0.045202553
18	0x3d0fbed4	0.035094097
19	0xbd59dfd5	-0.05319198
20	0xbd465678	-0.048422307
21	0xbd721e70	-0.05911106
22	0x3cb6cab3	0.022313451
23	0xbdb4c0d0	-0.088258386
24	0x3d7cb04d	0.06169157
25	0x3a537245	0.0008066039
26	0x3d35553a	0.04427073
27	0x3cd5ca4c	0.02609744
28	0xbda54c91	-0.080712445
29	0xbd5c29aa	-0.05375067
30	0x3cede6dc	0.029040746
31	0x3d92116f	0.071322314
32	0xbd42bdda	-0.047544338
33	0xbd26044b	-0.040531438
34	0x3d3f2604	0.046667114
35	0x3c04943d	0.008091983
36	0x3c7ab80d	0.01530267
37	0xbaf0ba4a	-0.0018366065
38	0xbd8eb46e	-0.06968008
39	0x3c00d54f	0.007863357
40	0xbc750ad4	-0.014956195
41	0x3c83a065	0.016067693
42	0x3ba8ed3e	0.0051552346
43	0x3d4de610	0.050268233
44	0xbc762780	-0.015024066
45	0x3bbe9f5b	0.0058173365
46	0xbdc1ad4b	-0.09456881
47	0xbcc63a82	-0.02419782
48	0xbd7ab4dd	-0.06120764
49	0xbda7f60a	-0.08201225
50	0x3d088078	0.033325642
51	0xbcceae3e	-0.02522957
52	0xbd683144	-0.05668761
53	0xbc52f967	-0.012876845
54	0xbba0edcb	-0.0049111596
55	0xbd434508	-0.047673255
56	0xbd88a21a	-0.066715434
57	0xbd91fa2d	-0.07127795
58	0xbd29a6aa	-0.04141871
59	0xbcabc283	-0.020966774
60	0x3ce19875	0.027538517
61	0xbaccce65	-0.0015625475
62	0x333432b8	4.1955644e-08
63	0x3d0bc039	0.034118865
64	0xbdae9b2a	-0.08525689
65	0x3bbce600	0.005764723
66	0xbce98461	-0.028505506
67	0xbd3039f3	-0.043024015
68	0x3d26f0cb	0.04075698
69	0x3d3374fb	0.043812733
70	0x3c43bacb	0.01194639
71	0xbced0cec	-0.028936826
72	0xbdd86d0f	-0.10567676
73	0xbd9203ac	-0.071296066
74	0x39992f37	0.00029217612
75	0x3d0323d7	0.0320166
76	0xbc4993b1	-0.012303279
77	0x3d62a8cb	0.055336755
78	0xbd13da21	-0.036096696
79	0xbc8ba636	-0.017047029
80	0xbdbaf0d0	-0.091279626
81	0x3da98da1	0.08278967
82	0xbd6dce6f	-0.0580582
83	0xbdcc01fb	-0.09961315
84	0xbcaf4129	-0.021393375
85	0x3dbb491c	0.09144804
86	0xbcc38c6a	-0.023870666
87	0xbdfeecac	-0.12447485
88	0xbce2ec5c	-0.027700596
89	0x3ba325b7	0.004978861
90	0x3bad7f3e	0.0052947095
91	0xbd007b1c	-0.031367406
92	0xbc6f2731	-0.014596746
93	0xbce40015	-0.02783207
94	0x3d9b97be	0.07597302
95	0x3c8a7624	0.016902037
96	0xbcaf2027	-0.021377636
97	0xbc003b9e	-0.007826714
98	0x3d85e5d0	0.06537974
99	0xbd88e8c2	-0.0668502
100	0x3da4bb49	0.08043534
101	0x3d08c04e	0.03338652
102	0xbc462479	-0.012093657
103	0x3d67101d	0.05641185
104	0xbc8d7eaf	-0.017272322
105	0xbd97fcf9	-0.074212976
106	0xbdfa5803	-0.12223818
107	0xbd5e545c	-0.05427967
108	0x3c379df1	0.01120709
109	0x3be56da7	0.007001597
110	0x3f0a433d	0.5400885
111	0x3dbc0e36	0.09182398
112	0xbe0304bf	-0.12794779
113	0xbdc937b6	-0.09825079
114	0xbc9f5397	-0.019449038
115	0xbd436058	-0.047699302
116	0xbdc0b93c	-0.09410331
117	0x3d4d6759	0.050147388
118	0x3d25e662	0.040502913
119	0x3c0852c0	0.00832051
120	0x3d612bcd	0.054973412
121	0x3e275ac3	0.16343217
122	0xbd1b10c2	-0.03785778
123	0x3ce1de98	0.027571961
124	0xbd9afac2	-0.075673595
125	0xbca0f591	-0.019648345
126	0xbe6321c1	-0.22180845
127	0xbd1354e4	-0.03596963

2.bias f4 [2]
0	0xb6db20b4	-6.5305157e-06
1	0xb6a5a042	-4.9360397e-06
